Python/KI/meinNetz.pt (torch_old, 5103 bytes, 4 tensors)

weight f4 [10, 10]
-0.04949698 -0.2759325 -0.11553931 -0.019396305 0.22929642 0.02616465 -0.24813238 -0.42125422
-0.0028750896 0.21672538 -0.08936447 -0.20030846 0.10560566 -0.28105313 -0.1724934 -0.24096306
0.12172982 -0.15627564 -0.30677614 -0.098404855 0.28413495 -0.40215966 -0.1592907 0.065796435
-0.28486946 -0.35721725 -0.17998517 -0.27234864 0.15846658 -0.17045103 0.27266726 -0.45807007
-0.2777568 0.020426273 -0.21224225 0.03681296 0.0688442 -0.2779525 -0.17426336 0.20164594
0.10706705 -0.024367407 -0.43565464 -0.2744906 0.12660721 0.082776174 0.018510088 0.013054654
-0.23706527 0.10896036 -0.26556054 -0.043854088 -0.20774648 0.00901705 0.30690363 -0.03040132
-0.00509274 0.13936555 -0.26892227 -0.052694917 0.06735271 -0.22433497 -0.21724917 -0.11505419
-0.30705187 0.17276458 0.24448328 0.0371096 -0.037903756 -0.17687906 -0.004107803 -0.2876852
0.19833687 -0.03385225 0.0073291957 -0.04331252 -0.014763564 0.14769095 -0.08820535 0.26270053
-0.3013903 -0.31972533 -0.0534762 -0.31980354 0.29198602 0.0063700825 -0.060287043 -0.29290196
0.13135347 -0.19829524 0.3130184 -0.49848855 0.07707171 -0.20294069 0.08085257 -0.19548549
-0.36038083 0.057107076 0.13964263 -0.18255763
00000000: 58bd 4abd 0647 8dbe e09f ecbd 00e5 9ebc
00000010: aecc 6a3e 4057 d63c 6a16 7ebe a2ae d7be
00000020: 006c 3cbb 42ed 5d3e b804 b7bd a91d 4dbe
00000030: c847 d83d 32e6 8fbe 1ca2 30be 05bf 76be
00000040: 7c4d f93d b906 20be c311 9dbe 7c88 c9bd
00000050: 237a 913e dfe7 cdbe 1a1d 23be 48c0 863d
00000060: 69da 91be 2ee5 b6be 084e 38be 4871 8bbe
00000070: 1045 223e b78a 2ebe 0b9b 8b3e 2988 eabe
00000080: 2436 8ebe 0055 a73c 0856 59be 30c9 163d
00000090: 30fe 8c3d ca4f 8ebe 1872 32be 467c 4e3e
000000a0: f845 db3d 289e c7bc 200e dfbe 088a 8cbe
000000b0: 52a5 013e 8e86 a93d 78a2 973c 30e3 553c
000000c0: 3dc1 72be 9c26 df3d 8df7 87be 58a0 33bd
000000d0: 7ebb 54be 40bc 133c 7922 9d3e 300c f9bc
000000e0: 00e1 a6bb d8b5 0e3e 2eb0 89be a0d6 57bd
000000f0: 38f0 893d 11b8 65be 9176 5ebe 88a1 ebbd
00000100: e735 9dbe 33e9 303e d359 7a3e 3c00 183d
00000110: f840 1bbd c91f 35be c09a 86bb 794b 93be
00000120: d218 4b3e a8a8 0abd c029 f03b 7868 31bd
00000130: e0e2 71bc 4c3c 173e 02a5 b4bd af80 863e
00000140: d44f 9abe 0ab3 a3be dc09 5bbd 4abd a3be
00000150: 317f 953e 20bc d03b 8cef 76bd 3ff7 95be
00000160: 8681 063e e80d 4bbe f343 a03e e439 ffbe
00000170: c6d7 9d3d afcf 4fbe 0896 a53d 592d 48be
00000180: d683 b8be 1ce9 693d 7afe 0e3e 63f0 3abe

bias f4 [10]
-0.42175674 -0.18077214 -0.1222702 -0.45625907 -0.40837237 -0.23398525 0.10226159 -0.09239842
-0.0786442 -0.39368194
00000000: 80f0 d7be 551c 39be cc68 fabd ca9a e9be
00000010: 2f16 d1be d499 6fbe 866e d13d 623b bdbd
00000020: 3610 a1bd ae90 c9be

weight f4 [10, 10]
0.33915251 -0.28072914 0.09396562 0.24718072 -0.0574473 -0.31023732 0.30080977 0.0947617
-0.034628347 -0.07310058 -0.23898575 0.26329997 0.062163487 -0.48215917 0.05930914 -0.3134388
-0.27144587 0.056654572 -0.35271055 -0.24495727 0.18319517 0.14138943 0.004889503 0.07978375
-0.08378425 0.25158945 0.13657744 0.21443096 0.103179604 0.27623338 -0.25330132 -0.13806216
-0.34985414 -0.08403762 0.014365807 -0.24753743 0.26818335 -0.057879925 -0.111988455 -0.1757833
0.026071131 0.3095816 0.26978242 0.3996131 0.4485029 0.2569367 -0.12835455 -0.16516723
0.12250911 0.42798707 0.08256197 0.16143653 0.18895872 0.016833782 0.14739853 0.017854601
-0.15580297 -0.092422545 0.1856486 0.080946654 -0.18030332 -0.12285592 -0.38361531 -0.12990066
-0.0876347 -0.2218183 -0.21920061 -0.08755237 -0.47317716 0.038243636 -0.04008147 -0.20189944
0.45339888 -0.011835977 0.47133124 0.21470645 -0.25327635 -0.2684775 0.18943709 0.06132537
0.087515324 0.14406037 0.0073649436 0.076699555 0.45945305 -0.15975876 0.13973302 0.22736368
0.4065597 -0.052469343 0.37962818 0.312995 0.077044636 0.4036609 0.12529938 -0.07968502
0.32793826 -0.033038467 0.09728214 0.36439294
00000000: 66a5 ad3e bbbb 8fbe 0c71 c03d f11c 7d3e
00000010: dc4d 6bbd 6dd7 9ebe bd03 9a3e 6c12 c23d
00000020: 74d6 0dbd c2b5 95bd aeb8 74be 41cf 863e
00000030: 249f 7e3d 91dd f6be 24ee 723d 0d7b a0be
00000040: f4fa 8abe a00e 683d 7a96 b4be 14d6 7abe
00000050: 8497 3b3e 64c8 103e 2038 a03b aa65 a33d
00000060: 1497 abbd 55d0 803e f5da 0b3e ca93 5b3e
00000070: d44f d33d 766e 8d3e b6b0 81be 2b60 0dbe
00000080: 1520 b3be ea1b acbd 905e 6b3c 747a 7dbe
00000090: 544f 893e 8013 6dbd 345a e5bd 8a00 34be
000000a0: 2093 d53c 7b81 9e3e ec20 8a3e 179a cc3e
000000b0: 2ca2 e53e 358d 833e 606f 03be 9921 29be
000000c0: 0ee6 fa3d 1f21 db3e 4016 a93d 9e4f 253e
000000d0: 657e 413e 00e7 893c a4ef 163e d043 923c
000000e0: d08a 1fbe 0848 bdbd ab1a 3e3e 5cc7 a53d
000000f0: 6fa1 38be e29b fbbd 3a69 c4be ae04 05be
00000100: d279 b3bd 5624 63be 2076 60be a84e b3bd
00000110: 4744 f2be 5ca5 1c3d 782c 24bd babe 4ebe
00000120: e623 e83e b0eb 41bc 5452 f13e 02dc 5b3e
00000130: 70ad 81be e275 89be ccfb 413e 5030 7b3d
00000140: 3c3b b33d 9084 133e a055 f13b a814 9d3d
00000150: 6e3d eb3e cd97 23be 2c16 0f3e 06d2 683e
00000160: 9828 d03e 18ea 56bd a05e c23e e140 a03e
00000170: 94c9 9d3d a4ac ce3e 7b4e 003e e631 a3bd
00000180: 86e7 a73e 5853 07bd dc3b c73d b691 ba3e

bias f4 [10]
0.88737684 -0.11142807 -0.11142807 0.11142807 1.1126499 0.11142807 -0.11142807 -0.11142807
1.1126499 0.88737684
00000000: 212b 633f 6634 e4bd 6634 e4bd 6634 e43d
00000010: 506b 8e3f 6634 e43d 6634 e4bd 6634 e4bd
00000020: 506b 8e3f 212b 633f
